…
90976/91164 [============================>.] - ETA: 0s - loss: 0.1702 - acc: 0.935491164/91164 [==============================] - 27s 296us/step - loss: 0.1703 - acc: 0.9354 - val_loss: 0.1952 - val_acc: 0.9315
Number of parameters 7121
_________________________________________________________________
Layer (type)                 Output Shape              Param #   
=================================================================
input_1 (InputLayer)         (None, 10, 20, 60, 1)     0         
_________________________________________________________________
conv3d (Conv3D)              (None, 10, 20, 60, 10)    280       
_________________________________________________________________
max_pooling3d (MaxPooling3D) (None, 5, 10, 30, 10)     0         
_________________________________________________________________
conv3d_1 (Conv3D)            (None, 5, 10, 30, 10)     2710      
_________________________________________________________________
max_pooling3d_1 (MaxPooling3 (None, 2, 5, 15, 10)      0         
_________________________________________________________________
conv3d_2 (Conv3D)            (None, 2, 5, 15, 10)      2710      
_________________________________________________________________
max_pooling3d_2 (MaxPooling3 (None, 1, 2, 7, 10)       0         
_________________________________________________________________
flatten (Flatten)            (None, 140)               0         
_________________________________________________________________
dense (Dense)                (None, 10)                1410      
_________________________________________________________________
dense_1 (Dense)              (None, 1)                 11        
=================================================================
Total params: 7,121
Trainable params: 7,121
Non-trainable params: 0
_________________________________________________________________
    32/376302 [..............................] - ETA: 10:44   256/376302 [..............................] - ETA: 2:45 
…
