…
68288/68372 [============================>.] - ETA: 0s - loss: 0.4710 - acc: 0.8404
68320/68372 [============================>.] - ETA: 0s - loss: 0.4709 - acc: 0.8404
68352/68372 [============================>.] - ETA: 0s - loss: 0.4708 - acc: 0.8404
68372/68372 [==============================] - 484s 7ms/step - loss: 0.4708 - acc: 0.8404 - val_loss: 0.3409 - val_acc: 0.8649
Number of parameters 7121
_________________________________________________________________
Layer (type)                 Output Shape              Param #   
=================================================================
input_1 (InputLayer)         (None, 10, 20, 60, 1)     0         
_________________________________________________________________
conv3d_1 (Conv3D)            (None, 10, 20, 60, 10)    280       
_________________________________________________________________
max_pooling3d_1 (MaxPooling3 (None, 5, 10, 30, 10)     0         
_________________________________________________________________
conv3d_2 (Conv3D)            (None, 5, 10, 30, 10)     2710      
_________________________________________________________________
max_pooling3d_2 (MaxPooling3 (None, 2, 5, 15, 10)      0         
_________________________________________________________________
conv3d_3 (Conv3D)            (None, 2, 5, 15, 10)      2710      
_________________________________________________________________
max_pooling3d_3 (MaxPooling3 (None, 1, 2, 7, 10)       0         
_________________________________________________________________
flatten_1 (Flatten)          (None, 140)               0         
_________________________________________________________________
dense_1 (Dense)              (None, 10)                1410      
_________________________________________________________________
dense_2 (Dense)              (None, 1)                 11        
=================================================================
Total params: 7,121
Trainable params: 7,121
Non-trainable params: 0
_________________________________________________________________

   32/34017 [..............................] - ETA: 2:58
   64/34017 [..............................] - ETA: 2:16
   96/34017 [..............................] - ETA: 2:02
  128/34017 [..............................] - ETA: 1:55
…
68288/68372 [============================>.] - ETA: 0s - loss: 1.2682 - acc: 0.7960
68320/68372 [============================>.] - ETA: 0s - loss: 1.2678 - acc: 0.7959
68352/68372 [============================>.] - ETA: 0s - loss: 1.2674 - acc: 0.7960
68372/68372 [==============================] - 500s 7ms/step - loss: 1.2673 - acc: 0.7959 - val_loss: 0.4866 - val_acc: 0.8061
Number of parameters 14789
_________________________________________________________________
Layer (type)                 Output Shape              Param #   
=================================================================
input_2 (InputLayer)         (None, 10, 20, 60, 1)     0         
_________________________________________________________________
conv3d_4 (Conv3D)            (None, 10, 20, 60, 10)    280       
_________________________________________________________________
max_pooling3d_4 (MaxPooling3 (None, 5, 10, 30, 10)     0         
_________________________________________________________________
dropout_1 (Dropout)          (None, 5, 10, 30, 10)     0         
_________________________________________________________________
conv3d_5 (Conv3D)            (None, 5, 10, 30, 10)     2710      
_________________________________________________________________
max_pooling3d_5 (MaxPooling3 (None, 2, 5, 15, 10)      0         
_________________________________________________________________
dropout_2 (Dropout)          (None, 2, 5, 15, 10)      0         
_________________________________________________________________
conv3d_6 (Conv3D)            (None, 2, 5, 15, 10)      2710      
_________________________________________________________________
max_pooling3d_6 (MaxPooling3 (None, 1, 2, 7, 10)       0         
_________________________________________________________________
dropout_3 (Dropout)          (None, 1, 2, 7, 10)       0         
_________________________________________________________________
flatten_2 (Flatten)          (None, 140)               0         
_________________________________________________________________
dense_3 (Dense)              (None, 64)                9024      
_________________________________________________________________
dropout_4 (Dropout)          (None, 64)                0         
_________________________________________________________________
dense_4 (Dense)              (None, 1)                 65        
=================================================================
Total params: 14,789
Trainable params: 14,789
Non-trainable params: 0
_________________________________________________________________

   32/34017 [..............................] - ETA: 4:17
   64/34017 [..............................] - ETA: 2:56
   96/34017 [..............................] - ETA: 2:29
  128/34017 [..............................] - ETA: 2:15
…
68288/68372 [============================>.] - ETA: 0s - loss: 1.1805 - acc: 0.7943
68320/68372 [============================>.] - ETA: 0s - loss: 1.1802 - acc: 0.7943
68352/68372 [============================>.] - ETA: 0s - loss: 1.1798 - acc: 0.7943
68372/68372 [==============================] - 278s 4ms/step - loss: 1.1796 - acc: 0.7943 - val_loss: 0.4906 - val_acc: 0.8058
Number of parameters 7629
_________________________________________________________________
Layer (type)                 Output Shape              Param #   
=================================================================
input_3 (InputLayer)         (None, 10, 20, 60, 1)     0         
_________________________________________________________________
conv3d_7 (Conv3D)            (None, 10, 20, 60, 6)     168       
_________________________________________________________________
max_pooling3d_7 (MaxPooling3 (None, 5, 10, 30, 6)      0         
_________________________________________________________________
dropout_5 (Dropout)          (None, 5, 10, 30, 6)      0         
_________________________________________________________________
conv3d_8 (Conv3D)            (None, 5, 10, 30, 6)      978       
_________________________________________________________________
max_pooling3d_8 (MaxPooling3 (None, 2, 5, 15, 6)       0         
_________________________________________________________________
dropout_6 (Dropout)          (None, 2, 5, 15, 6)       0         
_________________________________________________________________
conv3d_9 (Conv3D)            (None, 2, 5, 15, 6)       978       
_________________________________________________________________
max_pooling3d_9 (MaxPooling3 (None, 1, 2, 7, 6)        0         
_________________________________________________________________
dropout_7 (Dropout)          (None, 1, 2, 7, 6)        0         
_________________________________________________________________
flatten_3 (Flatten)          (None, 84)                0         
_________________________________________________________________
dense_5 (Dense)              (None, 64)                5440      
_________________________________________________________________
dropout_8 (Dropout)          (None, 64)                0         
_________________________________________________________________
dense_6 (Dense)              (None, 1)                 65        
=================================================================
Total params: 7,629
Trainable params: 7,629
Non-trainable params: 0
_________________________________________________________________

   32/34017 [..............................] - ETA: 4:09
   64/34017 [..............................] - ETA: 2:32
   96/34017 [..............................] - ETA: 1:59
  128/34017 [..............................] - ETA: 1:43
…
68288/68372 [============================>.] - ETA: 0s - loss: 0.9727 - acc: 0.7954
68320/68372 [============================>.] - ETA: 0s - loss: 0.9725 - acc: 0.7954
68352/68372 [============================>.] - ETA: 0s - loss: 0.9723 - acc: 0.7954
68372/68372 [==============================] - 277s 4ms/step - loss: 0.9722 - acc: 0.7954 - val_loss: 0.4936 - val_acc: 0.8057
Number of parameters 12445
_________________________________________________________________
Layer (type)                 Output Shape              Param #   
=================================================================
input_4 (InputLayer)         (None, 10, 20, 60, 1)     0         
_________________________________________________________________
conv3d_10 (Conv3D)           (None, 10, 20, 60, 6)     168       
_________________________________________________________________
max_pooling3d_10 (MaxPooling (None, 5, 10, 30, 6)      0         
_________________________________________________________________
dropout_9 (Dropout)          (None, 5, 10, 30, 6)      0         
_________________________________________________________________
conv3d_11 (Conv3D)           (None, 5, 10, 30, 6)      978       
_________________________________________________________________
max_pooling3d_11 (MaxPooling (None, 2, 5, 15, 6)       0         
_________________________________________________________________
dropout_10 (Dropout)         (None, 2, 5, 15, 6)       0         
_________________________________________________________________
conv3d_12 (Conv3D)           (None, 2, 5, 15, 6)       978       
_________________________________________________________________
max_pooling3d_12 (MaxPooling (None, 1, 2, 7, 6)        0         
_________________________________________________________________
dropout_11 (Dropout)         (None, 1, 2, 7, 6)        0         
_________________________________________________________________
flatten_4 (Flatten)          (None, 84)                0         
_________________________________________________________________
dense_7 (Dense)              (None, 120)               10200     
_________________________________________________________________
dropout_12 (Dropout)         (None, 120)               0         
_________________________________________________________________
dense_8 (Dense)              (None, 1)                 121       
=================================================================
Total params: 12,445
Trainable params: 12,445
Non-trainable params: 0
_________________________________________________________________

   32/34017 [..............................] - ETA: 4:41
   64/34017 [..............................] - ETA: 2:48
   96/34017 [..............................] - ETA: 2:10
  128/34017 [..............................] - ETA: 1:51
…
68288/68372 [============================>.] - ETA: 0s - loss: 3.1102 - acc: 0.8060
68320/68372 [============================>.] - ETA: 0s - loss: 3.1109 - acc: 0.8060
68352/68372 [============================>.] - ETA: 0s - loss: 3.1118 - acc: 0.8059
68372/68372 [==============================] - 486s 7ms/step - loss: 3.1121 - acc: 0.8059 - val_loss: 3.1320 - val_acc: 0.8057
Number of parameters 13933
_________________________________________________________________
Layer (type)                 Output Shape              Param #   
=================================================================
input_5 (InputLayer)         (None, 10, 20, 60, 1)     0         
_________________________________________________________________
conv3d_13 (Conv3D)           (None, 10, 20, 60, 6)     726       
_________________________________________________________________
max_pooling3d_13 (MaxPooling (None, 3, 6, 20, 6)       0         
_________________________________________________________________
dropout_13 (Dropout)         (None, 3, 6, 20, 6)       0         
_________________________________________________________________
conv3d_14 (Conv3D)           (None, 3, 6, 20, 6)       4326      
_________________________________________________________________
max_pooling3d_14 (MaxPooling (None, 1, 2, 6, 6)        0         
_________________________________________________________________
dropout_14 (Dropout)         (None, 1, 2, 6, 6)        0         
_________________________________________________________________
flatten_5 (Flatten)          (None, 72)                0         
_________________________________________________________________
dense_9 (Dense)              (None, 120)               8760      
_________________________________________________________________
dropout_15 (Dropout)         (None, 120)               0         
_________________________________________________________________
dense_10 (Dense)             (None, 1)                 121       
=================================================================
Total params: 13,933
Trainable params: 13,933
Non-trainable params: 0
_________________________________________________________________

   32/34017 [..............................] - ETA: 5:30
   64/34017 [..............................] - ETA: 3:33
   96/34017 [..............................] - ETA: 2:53
  128/34017 [..............................] - ETA: 2:34
…
