…
90912/91164 [============================>.] - ETA: 0s - loss: 0.3368 - acc: 0.8658
91008/91164 [============================>.] - ETA: 0s - loss: 0.3368 - acc: 0.8658
91104/91164 [============================>.] - ETA: 0s - loss: 0.3368 - acc: 0.8659
91164/91164 [==============================] - 60s 655us/step - loss: 0.3368 - acc: 0.8658 - val_loss: 0.3306 - val_acc: 0.8589
Number of parameters 12445
_________________________________________________________________
Layer (type)                 Output Shape              Param #   
=================================================================
input_1 (InputLayer)         (None, 10, 20, 60, 1)     0         
_________________________________________________________________
conv3d_1 (Conv3D)            (None, 10, 20, 60, 6)     168       
_________________________________________________________________
max_pooling3d_1 (MaxPooling3 (None, 5, 10, 30, 6)      0         
_________________________________________________________________
dropout_1 (Dropout)          (None, 5, 10, 30, 6)      0         
_________________________________________________________________
conv3d_2 (Conv3D)            (None, 5, 10, 30, 6)      978       
_________________________________________________________________
max_pooling3d_2 (MaxPooling3 (None, 2, 5, 15, 6)       0         
_________________________________________________________________
dropout_2 (Dropout)          (None, 2, 5, 15, 6)       0         
_________________________________________________________________
conv3d_3 (Conv3D)            (None, 2, 5, 15, 6)       978       
_________________________________________________________________
max_pooling3d_3 (MaxPooling3 (None, 1, 2, 7, 6)        0         
_________________________________________________________________
dropout_3 (Dropout)          (None, 1, 2, 7, 6)        0         
_________________________________________________________________
flatten_1 (Flatten)          (None, 84)                0         
_________________________________________________________________
dense_1 (Dense)              (None, 120)               10200     
_________________________________________________________________
dropout_4 (Dropout)          (None, 120)               0         
_________________________________________________________________
dense_2 (Dense)              (None, 1)                 121       
=================================================================
Total params: 12,445
Trainable params: 12,445
Non-trainable params: 0
_________________________________________________________________

    32/376302 [..............................] - ETA: 38:49
   288/376302 [..............................] - ETA: 5:27 
   576/376302 [..............................] - ETA: 3:19
   864/376302 [..............................] - ETA: 2:35
…
