…
90944/91164 [============================>.] - ETA: 0s - loss: 0.3485 - acc: 0.8652
91040/91164 [============================>.] - ETA: 0s - loss: 0.3485 - acc: 0.8652
91136/91164 [============================>.] - ETA: 0s - loss: 0.3484 - acc: 0.8652
91164/91164 [==============================] - 63s 692us/step - loss: 0.3484 - acc: 0.8652 - val_loss: 0.3199 - val_acc: 0.8655
Number of parameters 13933
_________________________________________________________________
Layer (type)                 Output Shape              Param #   
=================================================================
input_1 (InputLayer)         (None, 10, 20, 60, 1)     0         
_________________________________________________________________
conv3d_1 (Conv3D)            (None, 10, 20, 60, 6)     726       
_________________________________________________________________
max_pooling3d_1 (MaxPooling3 (None, 3, 6, 20, 6)       0         
_________________________________________________________________
dropout_1 (Dropout)          (None, 3, 6, 20, 6)       0         
_________________________________________________________________
conv3d_2 (Conv3D)            (None, 3, 6, 20, 6)       4326      
_________________________________________________________________
max_pooling3d_2 (MaxPooling3 (None, 1, 2, 6, 6)        0         
_________________________________________________________________
dropout_2 (Dropout)          (None, 1, 2, 6, 6)        0         
_________________________________________________________________
flatten_1 (Flatten)          (None, 72)                0         
_________________________________________________________________
dense_1 (Dense)              (None, 120)               8760      
_________________________________________________________________
dropout_3 (Dropout)          (None, 120)               0         
_________________________________________________________________
dense_2 (Dense)              (None, 1)                 121       
=================================================================
Total params: 13,933
Trainable params: 13,933
Non-trainable params: 0
_________________________________________________________________

    32/376302 [..............................] - ETA: 23:13
   192/376302 [..............................] - ETA: 5:40 
   416/376302 [..............................] - ETA: 3:27
   640/376302 [..............................] - ETA: 2:45
…
