…
91008/91164 [============================>.] - ETA: 0s - loss: 3.0910 - acc: 0.8082
91072/91164 [============================>.] - ETA: 0s - loss: 3.0903 - acc: 0.8083
91136/91164 [============================>.] - ETA: 0s - loss: 3.0913 - acc: 0.8082
91164/91164 [==============================] - 162s 2ms/step - loss: 3.0912 - acc: 0.8082 - val_loss: 3.1420 - val_acc: 0.8051
Number of parameters 102861
_________________________________________________________________
Layer (type)                 Output Shape              Param #   
=================================================================
input_1 (InputLayer)         (None, 10, 20, 60, 1)     0         
_________________________________________________________________
conv3d_1 (Conv3D)            (None, 10, 20, 60, 20)    180       
_________________________________________________________________
max_pooling3d_1 (MaxPooling3 (None, 10, 10, 20, 20)    0         
_________________________________________________________________
dropout_1 (Dropout)          (None, 10, 10, 20, 20)    0         
_________________________________________________________________
conv3d_2 (Conv3D)            (None, 10, 10, 20, 20)    3220      
_________________________________________________________________
max_pooling3d_2 (MaxPooling3 (None, 10, 5, 6, 20)      0         
_________________________________________________________________
dropout_2 (Dropout)          (None, 10, 5, 6, 20)      0         
_________________________________________________________________
conv3d_3 (Conv3D)            (None, 10, 5, 6, 20)      3220      
_________________________________________________________________
max_pooling3d_3 (MaxPooling3 (None, 10, 2, 2, 20)      0         
_________________________________________________________________
dropout_3 (Dropout)          (None, 10, 2, 2, 20)      0         
_________________________________________________________________
flatten_1 (Flatten)          (None, 800)               0         
_________________________________________________________________
dense_1 (Dense)              (None, 120)               96120     
_________________________________________________________________
dropout_4 (Dropout)          (None, 120)               0         
_________________________________________________________________
dense_2 (Dense)              (None, 1)                 121       
=================================================================
Total params: 102,861
Trainable params: 102,861
Non-trainable params: 0
_________________________________________________________________

    32/376302 [..............................] - ETA: 39:39
   128/376302 [..............................] - ETA: 12:25
   256/376302 [..............................] - ETA: 7:44 
   384/376302 [..............................] - ETA: 6:12
…
