…
90880/91164 [============================>.] - ETA: 0s - loss: 0.3304 - acc: 0.8688
90976/91164 [============================>.] - ETA: 0s - loss: 0.3303 - acc: 0.8689
91072/91164 [============================>.] - ETA: 0s - loss: 0.3304 - acc: 0.8689
91164/91164 [==============================] - 60s 653us/step - loss: 0.3304 - acc: 0.8689 - val_loss: 0.3322 - val_acc: 0.8557
Number of parameters 7629
_________________________________________________________________
Layer (type)                 Output Shape              Param #   
=================================================================
input_1 (InputLayer)         (None, 10, 20, 60, 1)     0         
_________________________________________________________________
conv3d_1 (Conv3D)            (None, 10, 20, 60, 6)     168       
_________________________________________________________________
max_pooling3d_1 (MaxPooling3 (None, 5, 10, 30, 6)      0         
_________________________________________________________________
dropout_1 (Dropout)          (None, 5, 10, 30, 6)      0         
_________________________________________________________________
conv3d_2 (Conv3D)            (None, 5, 10, 30, 6)      978       
_________________________________________________________________
max_pooling3d_2 (MaxPooling3 (None, 2, 5, 15, 6)       0         
_________________________________________________________________
dropout_2 (Dropout)          (None, 2, 5, 15, 6)       0         
_________________________________________________________________
conv3d_3 (Conv3D)            (None, 2, 5, 15, 6)       978       
_________________________________________________________________
max_pooling3d_3 (MaxPooling3 (None, 1, 2, 7, 6)        0         
_________________________________________________________________
dropout_3 (Dropout)          (None, 1, 2, 7, 6)        0         
_________________________________________________________________
flatten_1 (Flatten)          (None, 84)                0         
_________________________________________________________________
dense_1 (Dense)              (None, 64)                5440      
_________________________________________________________________
dropout_4 (Dropout)          (None, 64)                0         
_________________________________________________________________
dense_2 (Dense)              (None, 1)                 65        
=================================================================
Total params: 7,629
Trainable params: 7,629
Non-trainable params: 0
_________________________________________________________________

    32/376302 [..............................] - ETA: 37:54
   288/376302 [..............................] - ETA: 5:24 
   576/376302 [..............................] - ETA: 3:18
   832/376302 [..............................] - ETA: 2:40
…
