…
91008/91164 [============================>.] - ETA: 0s - loss: 0.1656 - acc: 0.9385
91072/91164 [============================>.] - ETA: 0s - loss: 0.1656 - acc: 0.9385
91136/91164 [============================>.] - ETA: 0s - loss: 0.1655 - acc: 0.9385
91164/91164 [==============================] - 95s 1ms/step - loss: 0.1655 - acc: 0.9385 - val_loss: 0.1910 - val_acc: 0.9318
Number of parameters 7121
_________________________________________________________________
Layer (type)                 Output Shape              Param #   
=================================================================
input_1 (InputLayer)         (None, 10, 20, 60, 1)     0         
_________________________________________________________________
conv3d_1 (Conv3D)            (None, 10, 20, 60, 10)    280       
_________________________________________________________________
max_pooling3d_1 (MaxPooling3 (None, 5, 10, 30, 10)     0         
_________________________________________________________________
conv3d_2 (Conv3D)            (None, 5, 10, 30, 10)     2710      
_________________________________________________________________
max_pooling3d_2 (MaxPooling3 (None, 2, 5, 15, 10)      0         
_________________________________________________________________
conv3d_3 (Conv3D)            (None, 2, 5, 15, 10)      2710      
_________________________________________________________________
max_pooling3d_3 (MaxPooling3 (None, 1, 2, 7, 10)       0         
_________________________________________________________________
flatten_1 (Flatten)          (None, 140)               0         
_________________________________________________________________
dense_1 (Dense)              (None, 10)                1410      
_________________________________________________________________
dense_2 (Dense)              (None, 1)                 11        
=================================================================
Total params: 7,121
Trainable params: 7,121
Non-trainable params: 0
_________________________________________________________________

    32/376302 [..............................] - ETA: 19:30
   192/376302 [..............................] - ETA: 5:06 
   352/376302 [..............................] - ETA: 3:44
   512/376302 [..............................] - ETA: 3:14
…
