…
90976/91164 [============================>.] - ETA: 0s - loss: 0.3185 - acc: 0.8753
91040/91164 [============================>.] - ETA: 0s - loss: 0.3185 - acc: 0.8753
91104/91164 [============================>.] - ETA: 0s - loss: 0.3185 - acc: 0.8752
91164/91164 [==============================] - 92s 1ms/step - loss: 0.3185 - acc: 0.8752 - val_loss: 0.3025 - val_acc: 0.8714
Number of parameters 14789
_________________________________________________________________
Layer (type)                 Output Shape              Param #   
=================================================================
input_1 (InputLayer)         (None, 10, 20, 60, 1)     0         
_________________________________________________________________
conv3d_1 (Conv3D)            (None, 10, 20, 60, 10)    280       
_________________________________________________________________
max_pooling3d_1 (MaxPooling3 (None, 5, 10, 30, 10)     0         
_________________________________________________________________
dropout_1 (Dropout)          (None, 5, 10, 30, 10)     0         
_________________________________________________________________
conv3d_2 (Conv3D)            (None, 5, 10, 30, 10)     2710      
_________________________________________________________________
max_pooling3d_2 (MaxPooling3 (None, 2, 5, 15, 10)      0         
_________________________________________________________________
dropout_2 (Dropout)          (None, 2, 5, 15, 10)      0         
_________________________________________________________________
conv3d_3 (Conv3D)            (None, 2, 5, 15, 10)      2710      
_________________________________________________________________
max_pooling3d_3 (MaxPooling3 (None, 1, 2, 7, 10)       0         
_________________________________________________________________
dropout_3 (Dropout)          (None, 1, 2, 7, 10)       0         
_________________________________________________________________
flatten_1 (Flatten)          (None, 140)               0         
_________________________________________________________________
dense_1 (Dense)              (None, 64)                9024      
_________________________________________________________________
dropout_4 (Dropout)          (None, 64)                0         
_________________________________________________________________
dense_2 (Dense)              (None, 1)                 65        
=================================================================
Total params: 14,789
Trainable params: 14,789
Non-trainable params: 0
_________________________________________________________________

    32/376302 [..............................] - ETA: 39:27
   224/376302 [..............................] - ETA: 7:15 
   448/376302 [..............................] - ETA: 4:27
   640/376302 [..............................] - ETA: 3:39
…
